CUDA is available. Training on GPU
batch_size = 16
epoch = 400
random_seed = 3
----------------------------------------------------------------
        Layer (type)               Output Shape         Param #
================================================================
            Conv2d-1         [-1, 64, 128, 128]           1,792
            Conv2d-2         [-1, 64, 128, 128]          36,928
       BatchNorm2d-3         [-1, 64, 128, 128]             128
              ReLU-4         [-1, 64, 128, 128]               0
         Dropout2d-5         [-1, 64, 128, 128]               0
            Conv2d-6         [-1, 64, 128, 128]          36,928
       BatchNorm2d-7         [-1, 64, 128, 128]             128
              ReLU-8         [-1, 64, 128, 128]               0
     ContextModule-9         [-1, 64, 128, 128]               0
           Conv2d-10          [-1, 128, 64, 64]          73,856
           Conv2d-11          [-1, 128, 64, 64]         147,584
      BatchNorm2d-12          [-1, 128, 64, 64]             256
             ReLU-13          [-1, 128, 64, 64]               0
        Dropout2d-14          [-1, 128, 64, 64]               0
           Conv2d-15          [-1, 128, 64, 64]         147,584
      BatchNorm2d-16          [-1, 128, 64, 64]             256
             ReLU-17          [-1, 128, 64, 64]               0
    ContextModule-18          [-1, 128, 64, 64]               0
           Conv2d-19          [-1, 256, 32, 32]         295,168
           Conv2d-20          [-1, 256, 32, 32]         590,080
      BatchNorm2d-21          [-1, 256, 32, 32]             512
             ReLU-22          [-1, 256, 32, 32]               0
        Dropout2d-23          [-1, 256, 32, 32]               0
           Conv2d-24          [-1, 256, 32, 32]         590,080
      BatchNorm2d-25          [-1, 256, 32, 32]             512
             ReLU-26          [-1, 256, 32, 32]               0
    ContextModule-27          [-1, 256, 32, 32]               0
           Conv2d-28          [-1, 512, 16, 16]       1,180,160
           Conv2d-29          [-1, 512, 16, 16]       2,359,808
      BatchNorm2d-30          [-1, 512, 16, 16]           1,024
             ReLU-31          [-1, 512, 16, 16]               0
        Dropout2d-32          [-1, 512, 16, 16]               0
           Conv2d-33          [-1, 512, 16, 16]       2,359,808
      BatchNorm2d-34          [-1, 512, 16, 16]           1,024
             ReLU-35          [-1, 512, 16, 16]               0
    ContextModule-36          [-1, 512, 16, 16]               0
           Conv2d-37           [-1, 1024, 8, 8]       4,719,616
           Conv2d-38           [-1, 1024, 8, 8]       9,438,208
      BatchNorm2d-39           [-1, 1024, 8, 8]           2,048
             ReLU-40           [-1, 1024, 8, 8]               0
        Dropout2d-41           [-1, 1024, 8, 8]               0
           Conv2d-42           [-1, 1024, 8, 8]       9,438,208
      BatchNorm2d-43           [-1, 1024, 8, 8]           2,048
             ReLU-44           [-1, 1024, 8, 8]               0
    ContextModule-45           [-1, 1024, 8, 8]               0
         Upsample-46         [-1, 1024, 16, 16]               0
           Conv2d-47          [-1, 512, 16, 16]       4,719,104
 UpsamplingModule-48          [-1, 512, 16, 16]               0
           Conv2d-49         [-1, 1024, 16, 16]       9,438,208
           Conv2d-50          [-1, 512, 16, 16]       4,719,104
LocalisationModule-51          [-1, 512, 16, 16]               0
         Upsample-52          [-1, 512, 32, 32]               0
           Conv2d-53          [-1, 256, 32, 32]       1,179,904
 UpsamplingModule-54          [-1, 256, 32, 32]               0
           Conv2d-55          [-1, 512, 32, 32]       2,359,808
           Conv2d-56          [-1, 256, 32, 32]       1,179,904
LocalisationModule-57          [-1, 256, 32, 32]               0
           Conv2d-58            [-1, 1, 32, 32]           2,305
SegmentationLayer-59            [-1, 1, 32, 32]               0
         Upsample-60          [-1, 256, 64, 64]               0
           Conv2d-61          [-1, 128, 64, 64]         295,040
 UpsamplingModule-62          [-1, 128, 64, 64]               0
         Upsample-63            [-1, 1, 64, 64]               0
   UpscalingLayer-64            [-1, 1, 64, 64]               0
           Conv2d-65          [-1, 256, 64, 64]         590,080
           Conv2d-66          [-1, 128, 64, 64]         295,040
LocalisationModule-67          [-1, 128, 64, 64]               0
           Conv2d-68            [-1, 1, 64, 64]           1,153
SegmentationLayer-69            [-1, 1, 64, 64]               0
         Upsample-70        [-1, 128, 128, 128]               0
           Conv2d-71         [-1, 64, 128, 128]          73,792
 UpsamplingModule-72         [-1, 64, 128, 128]               0
         Upsample-73          [-1, 1, 128, 128]               0
   UpscalingLayer-74          [-1, 1, 128, 128]               0
           Conv2d-75        [-1, 128, 128, 128]         147,584
           Conv2d-76          [-1, 1, 128, 128]           1,153
SegmentationLayer-77          [-1, 1, 128, 128]               0
================================================================
Total params: 56,425,923
Trainable params: 56,425,923
Non-trainable params: 0
----------------------------------------------------------------
Input size (MB): 0.19
Forward/backward pass size (MB): 244.14
Params size (MB): 215.25
Estimated Total Size (MB): 459.58
----------------------------------------------------------------
Successfully created the main directory './model' 
…
